mnist_model_with_increased_hidden_layers.pt (torch, 945298 bytes, 6 tensors)

weight f4 [256, 784]
00000000: add1 ad3c 6545 10bd 5b80 823c 7b50 00bd
00000010: a115 2ebc 6dfd 02bd 3bcf ad3c 2d14 bd3b
00000020: 8fb5 a73c 1dff 06bd 098f 0d3d b22b fd3c
00000030: 486d 753c dd5a 133c fd64 b03b 8df9 cd3b
00000040: 3bd9 8fbc 3b64 dbbc d198 13bd 65e4 bf3c
00000050: 6d68 ee3c fe43 013c 7aa6 febb 0e18 fbbc
00000060: 42b1 0dbd 8fe5 213a 3322 36bc 6b55 aebc
00000070: 2d02 b03b 4b25 a6bc d95e 333b c572 193c
00000080: 1929 c5bc fd80 033c 8031 a1ba 2f36 c73c
00000090: 2ea7 3d3c e9c7 01bd e1c6 7c3b 388d 093d
000000a0: 7e4a f73c 10f2 5e3c 8d7d c3bc 6de5 b8bc
000000b0: c871 bfbc 4feb 833b 1556 86bc dcca 823c
000000c0: 5001 8dbc a89b babc 0a39 ccbc ea0a 4e3c
000000d0: 8734 5fbb 9907 1b3c 3100 da3c 37ec 073d
000000e0: 6928 00bb 6529 2fbc f323 993c 15c9 14bb
000000f0: d970 05bd 2bfc 81bc 8fb8 033d 5e8c 72bc
00000100: 03dd 2e3c b446 983b 553e 12bd 2eb8 21bb
00000110: 53fe bf3c 58b4 0dbc 5427 d9bb 7673 98bc
00000120: e485 8abb a8ce 85ba be21 08bd 5084 0fbb
00000130: 1302 b7bc 005b 443b b5c0 9f3c 2123 fa3c
00000140: 6dc4 ee3c 4ed4 d7bb 85cf d63b b240 013c
00000150: 114e eb3c 65d6 b3bc de47 71bc 32af f73c
00000160: 5e3c d13c f232 9ab9 d555 d23c 4589 9b3c
00000170: 582e 17bb 6f35 f7bc e17a 9e3a c880 d8bc
00000180: 4797 6bbc 669a 853c 46eb 2c3c c630 a3bc
00000190: 4406 e73c 15e5 a33c 16e0 fdbc a11d d13c
000001a0: 4232 09bd 3de9 c2bc a0ab ce3c 4801 303c
000001b0: 6eb7 b639 02ca 46bc ff28 b43c dbff 983c
000001c0: dcd9 06ba 971e 0cbc eae0 b4bc 8438 12bc
000001d0: 07fa 9bbb 2130 d13b 97b1 043d f131 4cbc
000001e0: fb1c babc 690d 29bc 3c45 c43c 69f8 043d
000001f0: 1502 7d3c cdb9 b0bb a818 163d 4ad7 f93c
00000200: 8983 90bb 68d1 1e3d daea e9ba ea23 773c
00000210: 0e61 06bd 3491 8cbc 55a7 e4bb 674e 883c
00000220: 6585 c43c 2238 7c3b 3b9d 2e3c ef4b 42bc
00000230: a011 a4bc 2218 f73c 812e deba 2e20 0b3d
00000240: 7648 833c c4ba b5bc 70b2 dabb ffc7 873c
00000250: b84f b33b 9db5 ed3c 2ba2 7a3c 9efa 0bbd
00000260: ca77 053d f946 7d3c 6d96 bdbc db81 b2bc
00000270: 5263 133d cf76 ea3c 58e2 e13c 244f 06bc
00000280: 2e74 6ebc 8f8b 8dbb ccca a1bc 6555 64bc
00000290: 48ba 12bd 8917 713c af67 42bc 0105 93bb
000002a0: b93c b8bc 59dd 1a3c 5b43 f83c 6af2 673b
000002b0: 433d a7bc 1a8f f0bb 4651 c7bc 360f b13b
000002c0: 9640 96bb 114f 003d f95c f53c 45d6 1bbd
000002d0: ea5a 98bc d574 573c 53fa d0bc 5c03 a6bc
000002e0: e92a 92bb f977 88bb 00af dabb 004c 013a
000002f0: e641 133d 17ec d73c e250 a9bc 6891 d3bc
00000300: 7747 09bd c90b 883c 0661 08bc 6b93 f33c
00000310: 14cb 75bb 5a83 24bc cd91 d3bc ab97 43bc
00000320: 1050 a33a 2ca3 c53c 0468 9e3c fe3b 8dbc
00000330: 3b76 f6bc ed90 80bb 9151 ea3c d0b8 69bc
00000340: dc10 ffbc 7650 103c 8d12 b3bc 10dc 33bb
00000350: 3c21 3f3c 0417 353c e2ff fdbb d65d f1bb
00000360: 482a 68bb 0621 5cbc 330a 1cbc b229 64bc
00000370: 1d78 de3c 2fe5 bb3c b5d9 df3c 5251 05bd
00000380: 7895 12bd f12c a83c 61e1 35bc 3f7d 2cbc
00000390: aae9 403c 8898 6ebc fde3 50bc f9db db3c
000003a0: dbd1 333c f49d 213b 5fa3 3ebb cd78 c8bb
000003b0: 592f 0b3d 8515 b0bc f7f2 2d3c 5ab9 c73c
000003c0: 9eeb 92bc b757 41bb a7f2 dab9 83b6 193d
000003d0: 9c2f dc3b 5a33 1dbc 47ac de3c eb5f 1fbd
000003e0: 62c8 bb3c dd69 a7bc 04d5 edbb d7e1 a93c
000003f0: 2363 993b 36c2 f73c 8456 013d eccc 22ba
0.021218145 -0.03522243 0.015930345 -0.031326752 -0.010625274 -0.031979967 0.02121698 0.0057702274
0.020472316 -0.03295814 0.034560237 0.030904625 0.014979668 0.008993831 0.0053831325 0.0062858523
-0.017559638 -0.026781192 -0.03603441 0.023424337 0.029102528 0.007889746 -0.0077713104 -0.030651119
-0.034592874 0.00061758695 -0.011116552 -0.021280965 0.005371353 -0.020281455 0.0027369766 0.009365742
-0.024067448 0.008026359 -0.0012298077 0.024317829 0.011575503 -0.03168479 0.003857069 0.033581942
0.030186888 0.013607517 -0.023863578 -0.022570336 -0.023369685 0.0040258537 -0.016398469 0.015965872
-0.01721254 -0.0227793 -0.024929542 0.012575844 -0.0034058408 0.009462261 0.02661142 0.033184256
-0.0019555336 -0.010691022 0.0186939 -0.0022702862 -0.032578323 -0.015867313 0.03215843 -0.014803974
0.0106728105 0.0046471003 -0.035703976 -0.002467643 0.0234367 -0.008648954 -0.0066270027 -0.018609744
-0.004227387 -0.0010208683 -0.033235304 -0.0021898933 -0.022339856 0.0029961467 0.01950107 0.030534329
0.029146397 -0.006586588 0.0065555 0.00788896 0.028723748 -0.021952817 -0.014726607 0.030234907
0.02554148 -0.00029411126 0.025675694 0.018986354 -0.0023068395 -0.030176846 0.0012091064 -0.026428595
-0.014379329 0.016308974 0.01055414 -0.019920718 0.02820123 0.020006696 -0.030990642 0.025526823
-0.033495195 -0.023792857 0.025228322 0.010742493 0.0003485041 -0.012133123 0.021992205 0.018676689
-0.0005144158 -0.008552215 -0.022079904 -0.008924607 -0.00476003 0.0063839112 0.032395925 -0.012463079
-0.022718897 -0.010318139 0.023958795 0.032463465 0.015442391 -0.005393243 0.036644608 0.030498166
-0.0044102115 0.038773924 -0.001784648 0.015084246 -0.032807402 -0.017159082 -0.0069779553 0.016638948
0.023989389 0.0038485606 0.010657604 -0.011858924 -0.020027936 0.030162875 -0.0016951115 0.033966236
0.016025763 -0.022183783 -0.0066741034 0.016574858 0.0054721497 0.029017264 0.015297453 -0.034174554
0.032584943 0.015458816 -0.023143018 -0.021790436 0.03598339 0.028621105 0.02757375 -0.0081975795
-0.014554067 -0.004319615 -0.019750021 -0.013936375 -0.035822183 0.014715084 -0.01186554 -0.0044866805
-0.022489892 0.009452187 0.030305555 0.0035392293 -0.020414954 -0.007341278 -0.024330746 0.0054034246
-0.004585336 0.031325404 0.02995156 -0.03804614 -0.018598039 0.0131504135 -0.025509989 -0.020265274
-0.0044606817 -0.0041646925 -0.0066736937 0.00049322844 0.035951518 0.026357694 -0.02066845 -0.025826171
-0.03351542 0.016607182 -0.008323913 0.02973338 -0.0037505077 -0.010041082 -0.02582636 -0.011938016
0.0012459774 0.024125658 0.019336708 -0.01724052 -0.030085674 -0.0039235265 0.028603347 -0.014265254
-0.031135969 0.008808246 -0.021859432 -0.00274444 0.011665639 0.011052851 -0.007751451 -0.0073659224
-0.0035425592 -0.013435608 -0.009523916 -0.013925957 0.027156884 0.022936432 0.02732549 -0.032548256
-0.035787076 0.020529242 -0.011101098 -0.010527908 0.01177446 -0.0145627335 -0.012749669 0.02683829
0.010975326 0.0024660798 -0.0029089076 -0.006117916 0.0339807 -0.021494636 0.010617009 0.024380375
-0.017934617 -0.0029501745 -0.0004176099 0.037527572 0.0067195427 -0.009594763 0.027181758 -0.038909834
0.022922698 -0.020436222 -0.0072580595 0.020737572 0.0046810075 0.030243974 0.03157665 -0.00062103453

bias f4 [256]
00000000: 241f 7abc 854b 55bc 6f00 13bc b17f d4bc
00000010: 0c04 93bc 9d80 683c 48a8 c9b9 ace3 eabc
00000020: 5d9a ddbc 6558 bfbc 53d0 8ebc 3260 153c
00000030: 5644 fb3a da1c 25bc bea5 34bc 2f85 e03c
00000040: 66fb dbbc 7282 cdbc a8f5 3bbc 6a8d 3d3c
00000050: 625c 6e3c 12ae f1bb 3e49 983c 927c e8bc
00000060: f9cb e7bb dde6 20bc a1a6 f23c c1e4 023d
00000070: 942d d53c 41a7 c73c cdf7 dabc 7cf1 0cbd
00000080: c1d0 07bd ea74 603c 6a5b 1fbc 7bae dcba
00000090: f953 f7bc f8c0 c9bc 9902 21bd 0b20 023d
000000a0: 04cf 15bd 2c34 18bb dfee c2bc bc79 afbb
000000b0: c360 833c 89f8 0bbc 426c a3bc f365 f33c
000000c0: 32a3 3dbc 2814 46bc 5392 f73c 305e e7bc
000000d0: d97e 003c 2303 4bba 1cbf 773c f789 03bc
000000e0: bbe2 893c fca8 a93c 8c8e 45bc c52e 823b
000000f0: 8105 e0bc 07e2 afbc 8f10 ee3c f4d6 cabc
00000100: 4bcc 0e3d 3b5e bb3b 929b f9bc dd5e 33bc
00000110: 2382 0cbb 9bf6 713b 0bef 243d 91ba 413b
00000120: c56e 293b 760b c7bb 493e 09bd b9c9 abbc
00000130: e6c7 a23c 7d02 dabc 0234 063c 81ad 8dbc
00000140: 7584 c83a a9c7 75bc 2731 d9bc 3a72 993c
00000150: 03a1 ddbb 54b7 0b3c 2055 013d e793 cfbc
00000160: 2fb0 a33a cc7d da3c 139d 20bc d01f 95bc
00000170: 40ea c93b a03a b33c a4c7 04bd 0eee 283b
00000180: c491 8a3c 7447 05bd c8d4 0cbd f7f3 12bd
00000190: 3ff2 9a3b 3994 943b f9dc ba3c 613d 7e3c
000001a0: fbea 953c 5acd 5abc dcab e43c ba1f 063d
000001b0: 0e2b e739 faef 4fbb 2780 7d3c fbe5 d9bc
000001c0: 1246 c8bc f3f5 ac3c 4360 23bb 15a2 14bb
000001d0: 1d35 a6bc 69ad 95bc 2f76 c3bc 01ff a63c
000001e0: fdbe b23b 1abb 143d 47f9 0f3d cb05 ab3c
000001f0: 156b 5f3c 451a 003d 3e3f c6bc e9b2 0e3d
00000200: 5a0a 41bc cbe0 cf3c d705 513c 8856 dbbc
00000210: adbb 34bc f233 bcbc 3c08 8cbc 46bd 02bd
00000220: bef8 06bc 6467 733b 77dd 523c b43b b3bc
00000230: 5bc3 e2bc 1693 68bc 476b f8bc 68a9 0cbc
00000240: 0f19 463c 796f 003d b845 b5bc cb4d 903b
00000250: fed3 ea3b 72e1 1d3c 799b c83a 5d8f f13c
00000260: 1518 44bc 4c9a 42bc 6520 673b 3f0e e43c
00000270: 32a5 96bc a0d1 8b3c 6e9b c9bb f9e8 8ebc
00000280: b4a0 f23c bd4b d93c aa3b 9ebc 3828 a93c
00000290: fcaa 6c3c 9d09 a7bc bc94 a23c e337 5ebc
000002a0: 7a25 543c dbd7 aabc 6198 933c 9a09 973c
000002b0: cec7 863c 1147 80bc 131f 153d 79d9 2d3c
000002c0: c97f c63c d87c f6bc 9de0 9ebc c457 aa3c
000002d0: 8219 113d 8a0a d63c 06c2 e1bc 10d5 c03c
000002e0: 64bd 8cbb e1c9 23bc 77d6 e93a b7dd 1fbc
000002f0: 7989 e7bb 6ad6 c9bc 0326 94bc 56ec 3a3b
00000300: 825a 1cbd 8f52 2fbc 680a 82bb 8d6a e63c
00000310: d2f2 b1bc 956f 093b 2b8f 3cbc 858f 8fbb
00000320: baed 81bc cba0 4cbc edb5 f4bc 68fa 073c
00000330: 2ced c13c d846 b23c 2718 59bc 3813 96bc
00000340: 2680 e6bc 1307 3e3b 2b72 b4bc bd8b bbbc
00000350: 8192 503c 3e15 ff3c 3a87 3d3b 7396 c7bc
00000360: 0811 e1bc 90c9 29bc 408b e6bc 03e3 683a
00000370: 4297 963c efc4 07bd 4ab0 fbbc 5308 c23c
00000380: cbde 2bbc 6b8c c5bc 28ee 3ebc 5fd3 a63c
00000390: ea2d 3a3c 0860 0cbd ecae a9bc a693 a43c
000003a0: 4eb9 193c 7b6d 783b 74a3 4cbc 3318 f5bc
000003b0: 9b78 b7bc 11bc dd3a ee34 163d 0715 613c
000003c0: a1ec 043d 5d88 b23c a977 ea3c 5ad2 333c
000003d0: f6a3 9abc 42f5 c83c 25d7 d6bc 0de9 b7bc
000003e0: 86d2 ac3c a1fe 07bd 2da9 8ebc 20b2 49bb
000003f0: 70e8 403c 55cd 853c b04b 92bc 729e 523c
-0.015266214 -0.013018494 -0.008972271 -0.025939794 -0.017946266 0.01419082 -0.00038463087 -0.028673016
-0.027051145 -0.02335758 -0.017433321 0.009117173 0.0019170146 -0.0100776795 -0.011025844 0.027407257
-0.026853275 -0.025086615 -0.011472143 0.01156936 0.014548393 -0.007375487 0.018589612 -0.028379712
-0.007073876 -0.009820667 0.02962047 0.031956438 0.02602271 0.024371745 -0.026729489 -0.034409985
-0.033158068 0.0136997495 -0.009726385 -0.0016836667 -0.030191408 -0.024628147 -0.039309118 0.03176884
-0.03657438 -0.0023224456 -0.023795543 -0.005355088 0.01603735 -0.008543142 -0.019949082 0.0297117
-0.011574553 -0.012089767 0.03022114 -0.028243154 0.007842743 -0.0007744303 0.015121248 -0.008028499
0.016831746 0.02071046 -0.012057912 0.0039728605 -0.027346374 -0.021470083 0.02906063 -0.0247607
0.034862798 0.0057180203 -0.03046969 -0.01094791 -0.0021439872 0.003692067 0.04026703 0.0029560665
0.0025853377 -0.0060743643 -0.033506665 -0.020970212 0.01987071 -0.026612515 0.008191111 -0.017294647
0.0015298264 -0.015001216 -0.026512695 0.018731225 -0.006763579 0.008527596 0.031575322 -0.02533908
0.001248842 0.026671313 -0.009803074 -0.018203646 0.006161958 0.02187854 -0.032416955 0.0025776657
0.01691521 -0.032538846 -0.03438261 -0.035877194 0.004728585 0.004534271 0.022810446 0.015517564
0.018300524 -0.013354624 0.02791398 0.0327451 0.00044091832 -0.003172873 0.015472448 -0.026598921
-0.024447475 0.021113371 -0.0024929203 -0.0022679616 -0.020288998 -0.018271165 -0.023860065 0.020385267
0.0054548965 0.036311246 0.03514984 0.020876786 0.01363637 0.031275053 -0.024200078 0.03483859
-0.011782253 0.025375744 0.01275774 -0.02677466 -0.0110310735 -0.022973988 -0.01709377 -0.031918786
-0.008238016 0.0037140483 0.012870184 -0.021879055 -0.027681043 -0.014195224 -0.030324591 -0.0085853115
0.012090935 0.03135631 -0.022127971 0.004403805 0.0071663847 0.00963627 0.0015305124 0.029487306
-0.011968632 -0.011877608 0.0035267111 0.027838824 -0.018389318 0.01706773 -0.006152562 -0.017445074
0.029617645 0.026525373 -0.01931556 0.02064906 0.014445063 -0.020390326 0.019846313 -0.013563129
0.012948388 -0.020854881 0.018016996 0.018437196 0.016452696 -0.015658887 0.036406588 0.010610932
0.024230855 -0.030088827 -0.019394213 0.020793803 0.035424717 0.026128072 -0.027558338 0.023539096
-0.004295038 -0.009996862 0.0017840405 -0.009757451 -0.0070659486 -0.024638373 -0.018084532 0.0028522215
-0.038172252 -0.010700836 -0.0039685257 0.02812698 -0.021722231 0.002097105 -0.011508743 -0.0043811225
-0.015860427 -0.012489508 -0.029871905 0.008299448 0.023672663 0.021762297 -0.013250387 -0.018319711
-0.028137278 0.0028995916 -0.022027096 -0.02289378 0.012730242 0.031138059 0.0028919713 -0.024363732
-0.027473941 -0.010362998 -0.028142571 0.0008883925 0.018382672 -0.033146795 -0.03072371 0.02368561
-0.01049013 -0.024114808 -0.011653461 0.020364461 0.011363486 -0.03427127 -0.020713292 0.020089936
0.009382559 0.0037907052 -0.012490142 -0.029918766 -0.022396376 0.001691701 0.03667157 0.0137379235
0.03245223 0.021793539 0.028621512 0.010975445 -0.01887701 0.02453101 -0.026225636 -0.022449994
0.02109648 -0.033201817 -0.017414654 -0.0030776337 0.011774167 0.016333262 -0.017858356 0.012855159

weight f4 [128, 256]
00000000: 324f 3fbd b2ce 313d 8cdf ce3d d186 383d
00000010: 4b21 9d3c 0419 7dbd 7a38 783d 52f5 d03c
00000020: 6be4 efbd 4265 8a3d dab1 89ba 4c4a d43d
00000030: a7bc 46bb 8016 42bd 27a6 443b 2643 30bd
00000040: 336b 7c3c 63ae 3b3d 0b4b 143d 935e d9bd
00000050: f688 833c 2375 023e f52b 53bd 5549 053d
00000060: 7727 1cbd 3663 933d 11af 78bd 957f bcbd
00000070: 49ad c63d 1f10 9a3d ae1e 4ebd 6d3d 97bc
00000080: 2d8d 9dbd 1f14 af3d 16c3 3cbd c6c8 c7bc
00000090: 9729 883b a013 623d 1a64 34bd cc25 093d
000000a0: a0f7 91bd cf22 eb3c 56dd 4a3d 1693 b03d
000000b0: f279 663c 534e c63d ee37 2b3b a363 29be
000000c0: c931 213d 12be 21bd a056 c53c 4ac2 6bbc
000000d0: 91fb b63d 6448 8e3d dd88 cfbb e86a a93a
000000e0: 38be 9bbd 0d04 a83c c402 4bbd c005 b4bd
000000f0: 43a2 be3d 8689 243d d593 7f3d dc88 96bc
00000100: 012d d3bd 979c 51bc 5de8 9abc 752e debc
00000110: 7933 513d 74d8 2abd 61e4 85bc f2a2 9939
00000120: 456f 8bbd 7471 b9bd 8ea9 b63c 1c0c f4bc
00000130: 99ac cf3c e4b0 503b 5a9c dbbc 1b86 6f3d
00000140: 62cb 3cbc 78a8 813c 212c d33d 9184 91bd
00000150: ebad e73c f0b3 36bd 9bec 2ebc e4b6 6cbd
00000160: fd5d 653d 0563 d9bc 26f5 983c 877f f7bc
00000170: ce42 243d 5d5d 59bc 9933 36bd 29fc bb3d
00000180: 12bb a0bd 10ad 0abd 7e8e 073e d819 153d
00000190: 9694 323d 7f46 4dbb efc4 92bd 5804 5cbd
000001a0: 514e 57bc 357e d2bc 3bd1 c2bd 19a8 93bd
000001b0: c577 00bd 94bb b13d 9a98 8fbd 68f0 993b
000001c0: 7ab8 353c 299d 11bd d02c af3d d899 19bd
000001d0: ccca 663d d139 43bb d4bf f8bd b828 453d
000001e0: 2ec0 523c 102f d23d b2bc bdbd 120b 05bc
000001f0: 372c 8bbc b2e3 cdbc 875f 27bd 718b 2e3d
00000200: 3b8a 413c 0951 29bd 8b67 7c3d 2357 a1bd
00000210: c34e a9bc 026f 73bd dbd4 74bd a587 27bd
00000220: 3484 b33d b313 533d 545f f1bc fbf6 023e
00000230: fe72 59bc 3c40 babd 1d12 0e3c fbab 0dbe
00000240: 424c cf3d ba50 31bd 008b 2cbd d459 f83d
00000250: 1028 45bd 742f 1c3d a58e 453d a187 233c
00000260: 0c4c 51bd cc8e d23a d595 8dbd 0620 703d
00000270: 1720 793c e007 f0bd 7b67 d1bc 2dd6 65bd
00000280: 55a5 04be a332 25bb 5f61 19bc 2c44 39bc
00000290: 0ab9 0c3e 9dc6 063d d9b1 29bd bf6f 53bd
000002a0: 01f8 803d 64b2 a23d ec9c 73bd f4f1 38bd
000002b0: e5bb 5cbd ee6e be3c d1f2 7bbc 17f1 833d
000002c0: 6eab 133c f869 313c b92f 2b3d f360 c03c
000002d0: 817f 223e 7e10 213d c1cb 8b3d e5db 0a3c
000002e0: 61ef 063d d4e3 2c3c 3ca6 723d 8910 763c
000002f0: a721 a1bd d8b2 ad3d 67fa 243d fbd7 01be
00000300: 21d8 9cbd c69c b83c 5084 87bb 9103 623d
00000310: cf8f 96bd e15f 61bd 9c87 a5bd 6d61 0d3b
00000320: 4ab2 8c3c 1b3b af3d 96a7 cc3c 0e9c bb3d
00000330: 2408 31bd 44f4 c83c fe64 27bb a9ab 65ba
00000340: 304d 733d a2ac 61bc c0f6 62bd fbe6 b43c
00000350: 77b0 d8bc 3eaa 7dbd fd4b 6c3c d57f 7f3d
00000360: 787e eebc 9479 ff3c 16fb febc 5406 9dbc
00000370: ef4d b03c 92d5 583d e78b 0dbe cea8 0bba
00000380: 4a6b 323d 6d8d 453d 436d b13c e118 a73b
00000390: 15a1 e7bc 8d30 7ebd 7ab5 b6bd 27fe 98bc
000003a0: 5909 9abd aaba eebc 4227 f53c 7a74 d03d
000003b0: 9996 17bd f8c6 f03d ca20 76bd d2ae 153e
000003c0: 4747 66bd 4c9f a73c 71a8 fdbc 9ab1 ec3c
000003d0: 6584 eb3c 2bc7 c43c 0d58 d93c afc7 78bc
000003e0: b87d 613c 8dc2 83bc 21aa bf3d ccde 063d
000003f0: 83a7 ae3c 2a4a 203e 51a8 84bc be1c ef3c
-0.046706386 0.04341001 0.10101232 0.045050446 0.019180914 -0.061791435 0.060600735 0.025507603
-0.11713489 0.06757595 -0.0010505274 0.103657335 -0.0030324848 -0.04738474 0.003000626 -0.043032788
0.015406418 0.045820605 0.03620438 -0.10613742 0.016056519 0.12739997 -0.051555593 0.032540638
-0.038123574 0.07196657 -0.06071383 -0.09204022 0.0970102 0.07522606 -0.050322227 -0.018461907
-0.07692943 0.0854876 -0.046084486 -0.024387728 0.0041553485 0.055194497 -0.044040777 0.03348331
-0.07127309 0.028703121 0.04952749 0.086218044 0.01406716 0.09682908 0.0026125866 -0.16541915
0.03935412 -0.039487906 0.024089158 -0.014389584 0.08934701 0.06947401 -0.006333454 0.0012925537
-0.07604641 0.020509744 -0.049563184 -0.08790159 0.09308293 0.040170215 0.062396843 -0.018375807
-0.10311318 -0.012793682 -0.018909628 -0.027121762 0.05107448 -0.041710332 -0.016344251 0.00029303838
-0.06808332 -0.090548426 0.022297647 -0.02979093 0.025350856 0.0031843716 -0.026807953 0.058477502
-0.0115231 0.015827402 0.10311151 -0.07105363 0.028281173 -0.044605196 -0.010676528 -0.057791606
0.055997837 -0.026536474 0.018671583 -0.030212177 0.040102772 -0.013266888 -0.0444828 0.09178955
-0.07848181 -0.03385645 0.1323795 0.0364016 0.043598734 -0.0031322537 -0.07166468 -0.05371508
-0.013141231 -0.025694946 -0.09512564 -0.072097965 -0.03136422 0.08678356 -0.07011528 0.004697848
0.011091346 -0.03555027 0.08553469 -0.037500232 0.056345746 -0.00297891 -0.12145963 0.048134536
0.012863202 0.10262883 -0.092645064 -0.008120315 -0.016988857 -0.025132988 -0.040862586 0.04261345
0.011812742 -0.041337047 0.061622184 -0.07877948 -0.02066744 -0.059432037 -0.059773307 -0.040900845
0.0876545 0.05153246 -0.029464401 0.12789528 -0.013272045 -0.09094283 0.008671311 -0.13835137
0.10121967 -0.043289877 -0.04212475 0.12126508 -0.04813391 0.038131192 0.04823174 0.009981067
-0.051097915 0.0016064285 -0.06913344 0.05862429 0.015205405 -0.11720252 -0.025562039 -0.056112457
-0.12953694 -0.0025207184 -0.009361594 -0.011307757 0.13742462 0.032904256 -0.041429374 -0.05162024
0.06297303 0.079441816 -0.059475824 -0.04515262 -0.053890128 0.023246255 -0.015377716 0.064424686
0.00901304 0.010828488 0.04179356 0.023483729 0.15868951 0.03932237 0.06825972 0.0084752785
0.032943133 0.010552365 0.059240565 0.015018591 -0.07867747 0.08481377 0.040277865 -0.12680046
-0.07658411 0.022535693 -0.004135646 0.055179182 -0.07351648 -0.055023078 -0.08082506 0.0021572963
0.017174859 0.08556195 0.024982255 0.091606244 -0.043220654 0.024530537 -0.0025542374 -0.0008761236
0.059399784 -0.013774069 -0.0554111 0.022082796 -0.026451332 -0.061929934 0.014422414 0.06237777
-0.02911304 0.031185903 -0.031125586 -0.019168057 0.021521537 0.05293805 -0.138229 -0.0005327583
0.04355935 0.048230577 0.021658545 0.0050994013 -0.028275052 -0.06205802 -0.08921333 -0.018675877
-0.07521314 -0.029141743 0.029925946 0.10178466 -0.037008855 0.117567 -0.060089864 0.1461747
-0.05622032 0.0204617 -0.030964108 0.02889328 0.028749654 0.024020752 0.026531244 -0.015184327
0.013762884 -0.01608398 0.093586214 0.03292732 0.02132011 0.15653291 -0.01619354 0.02918851

bias f4 [128]
00000000: cb92 ad3c 2ca9 23ba bea7 15bd 4698 463d
00000010: 983a d6bc 2abd 093c 7c5b 643d 67c3 243d
00000020: 0ef3 8fbc b480 923b 7f1e bb3c 24fd 0abd
00000030: 644d 31bd 6761 90bb af91 ab3c 2554 453b
00000040: 5ba3 833d 6114 503c 08d8 20bb 9836 233d
00000050: f44c f03c 72d8 293d f420 e1bb e72f 65bd
00000060: 4103 a03b 3166 953c cbe0 5dbc 0ebb da3c
00000070: e141 41bd a1c4 9e3c ca3b 15bd 2b37 15bb
00000080: 9cbf 963d 5344 373c 5785 303c 9f8e 3abc
00000090: 99b6 a33d 2a06 36bd 339f 59bd 5fa8 80bc
000000a0: 1f43 bc3d c7e0 20bc cffc 113d 411e 893c
000000b0: ee31 e23c 0b1b 11bd 9233 4ebc 88c9 babc
000000c0: f3c2 d2bc fe1c 07bd a4e2 ef3c 4da8 0e3c
000000d0: 77b8 10bd 3929 713d fa09 08bd 022d 82bd
000000e0: 5f92 663d 4318 4a3d 6e6d 4c3d b4af b2bc
000000f0: b1b2 d63c 2e03 26bc 80da 6f3d d9e7 a4bc
00000100: 343a 3dbd 86e9 453d 1682 21bd 2d37 17bd
00000110: e4a5 0cbd 308c 2a3d 1695 dfbb b957 32bb
00000120: f365 62ba 8628 6a3d 9382 8e3d 9cb9 143d
00000130: 40ee 14bd 8956 2a3d 37ee 9d3b 5f33 2abc
00000140: 7f3c fcbc eb79 5b3d fe8e 7c3d af84 1a3d
00000150: f813 1cbd 679f 003c 08b7 743d 2424 953c
00000160: 4c26 f3bc 3333 083c 6bf7 61bb 2da5 af3c
00000170: 4287 30bd 68d2 84bd 0a56 1dbd 456b 813d
00000180: ce8a 24bd 7de9 4a3d 2057 783c 592a 60bd
00000190: 713f 093d 58c4 70bc 40b3 9e3c 8cbb 5cbd
000001a0: c66f 123d daf4 aebc 91a2 223c c61c 193d
000001b0: d7e4 833c 118c 00bd d998 813d b6e6 d1bc
000001c0: 6d87 00bd a4bc 753d 6ef1 62bd 180d 4d3d
000001d0: efb1 7dbc 8e8a 103d 6559 ad3c d3cd 4f3d
000001e0: 235a cd3c 8189 8d3c 1fc7 3ebd 0454 3b3d
000001f0: 1a12 64bc 80cf 16bd 81f2 0ebd 2bec 84bc
0.02118816 -0.0006243165 -0.036536925 0.048485063 -0.026150987 0.008406917 0.05575131 0.040225413
-0.017571952 0.004470909 0.02284169 -0.03393282 -0.043286696 -0.0044061425 0.02094349 0.0030109969
0.06427642 0.012700171 -0.0024542827 0.039846987 0.02933357 0.041466184 -0.0068703834 -0.055953886
0.0048832004 0.018237205 -0.013542364 0.026700523 -0.047181968 0.01938087 -0.036433972 -0.0022768478
0.07360765 0.011185723 0.010773978 -0.011386543 0.07993812 -0.044439472 -0.05313034 -0.015705286
0.0919249 -0.009819216 0.035641488 0.016738059 0.027611699 -0.03542618 -0.0125855375 -0.022801176
-0.025727725 -0.032986633 0.029282875 0.008707118 -0.03533217 0.058877204 -0.03321264 -0.06356241
0.056291934 0.049339544 0.049909048 -0.021812297 0.026208254 -0.010132594 0.058557987 -0.020130085
-0.046198085 0.04831841 -0.0394307 -0.036917854 -0.034337893 0.0416376 -0.0068231924 -0.0027212931
-0.00086364074 0.057167552 0.06958499 0.036309823 -0.036360025 0.041586433 0.004819657 -0.010388224
-0.030790566 0.053583067 0.061659805 0.037724193 -0.03810498 0.0078505045 0.059744865 0.01820571
-0.029681347 0.008312988 -0.0034479748 0.021441067 -0.043097742 -0.06485444 -0.03841213 0.06319288
-0.040171437 0.049539078 0.015157491 -0.054727886 0.033507768 -0.0146952495 0.019372582 -0.053889796
0.035751127 -0.021356989 0.009926454 0.037380956 0.01610033 -0.031383578 0.063279815 -0.025622707
-0.031379152 0.059994355 -0.055406027 0.050061315 -0.015484317 0.035288386 0.02116079 0.0507334
0.025067395 0.017277481 -0.046576615 0.04573442 -0.013920331 -0.03681898 -0.03489924 -0.016225895

weight f4 [10, 128]
00000000: 0d08 3e3d 6d52 88bd b273 18be f92c 9fbc
00000010: 51af 0e3a a4c3 b6be b4a9 d6bd 0777 483c
00000020: 606e 02be cf26 b23d 5aeb 8d3b b074 08be
00000030: 9e85 bbbc 8061 0e3e dfa9 4bbd 0c0d 4a3e
00000040: 33cf 73be 6201 873e 6d2f 353e bda0 273e
00000050: 8c31 2d3e 5fd2 fe3d cb6a 3a3e f30e a8bd
00000060: 70dd 883d a261 a83d c9fa 05be a1ff b33d
00000070: 098c edbd 8229 15be a331 333e 0f75 80bc
00000080: 72c3 c4be bea5 363d d1ea 34be a029 433e
00000090: 3b27 b13e ced9 a93d 5b30 2ebe 80f1 5b3d
000000a0: c651 993d 191d 473e 9ba3 95be fedd f9bd
000000b0: de7a 9d3d f190 8ebd 9500 073c ff14 28bd
000000c0: 2358 31bd 5c07 9dbc 820e 7cbe 8041 8bbe
000000d0: 1a32 64bd 7f6d 20bd 7225 653d b00c 143d
000000e0: 771c dabc a907 683c 2d76 e5bd ca45 66be
000000f0: 6225 993c b581 4cbe f27b 00bd 76a5 8cbd
00000100: e3cb d9bc b56d 4fbe 545e 83be 5721 733d
00000110: 2534 1b3e 4200 00be 7857 49be 7ea0 073d
00000120: 7ae7 b5bd 63e9 36be 6e8d 4e3d 64b9 94be
00000130: 4db6 39be 3479 7a3c 0037 5d3d e827 cd3c
00000140: 86a5 5f3c 3d9c 063d 6cb5 cabd eefc ae3e
00000150: bf17 8bb8 480b 073b 2884 f0bd aef8 d0bd
00000160: 4d9a 453e 41e8 97ba 3350 543d e962 a3bd
00000170: b752 033e 844f 32bd c59b 13bd b7c3 013e
00000180: 6f2e 2e3e 227c 9a3e 6031 f13d 34d0 21bd
00000190: 58de 8d3e eccb 37be cf2d b8bd 19c2 513e
000001a0: 5512 be3c 76d8 753e 97c6 71be a703 abbd
000001b0: fac7 843e 6c4b 52bd 84b4 2f3d f59b 4b3d
000001c0: 24c0 c3bb 4b5f 46be e67a 3a3d 41c8 a0be
000001d0: 3adc 37be 7e80 713e 7cf8 53be 9080 d0bd
000001e0: 6309 183e 223f d4be 204f b23d 27d2 29bd
000001f0: 6e62 a13d 9d1d 633e 8cab 26bd efd7 083d
00000200: f2f3 c8bd 7be7 633e 08ba 87be ba5c 1cbc
00000210: e75d 2ebd 80de 3e3e fc4c 323e 71e7 603e
00000220: b311 51bd 0be5 20bc f4b5 0dbe c25e 1ebb
00000230: 33bf 78bd 21b0 6e3d 809c 8e3d 11be 463d
00000240: ec1f 573e 568d 66bd 3e86 873d 4fca 26bd
00000250: 5e49 06be 037a 81be 8de5 b5be 3169 77bc
00000260: 1a9d 053e 5c5c ad3e 712f c3bc ae39 693e
00000270: 64d3 ac3d a0c0 203d 441f 86be 7d9a 3dbc
00000280: 0fac 3bbd 5848 0a3e 99a0 19be 0b69 a2be
00000290: 68d3 a3be b96b a6bd 0000 55be fed7 aebd
000002a0: 9d05 aabe f754 423d bfa6 623e aad7 cdbd
000002b0: 981d 86be e750 913e 51f8 063e 8017 333e
000002c0: 6611 493c e014 f33d 5511 9abd 2270 6dbc
000002d0: ab5d 343d 7201 c63d b415 89bd 230f c83d
000002e0: 0e80 69bd 5fdd 6abd b48c 153e 79bd 923d
000002f0: eab5 b43d 168f 6b3e dde0 34be a4a9 863d
00000300: 5617 2cbd ac58 a33e df4b a3bd 6c0c 9b3c
00000310: 1a08 73be f2eb 443e 5689 a7bd 1644 99be
00000320: 5b0f 99bd 20d1 f1bd 47bc dabc ffb1 993e
00000330: e93f 14be 1f3c 2bbe cbfd 06bd 33b9 013e
00000340: 4804 22be 5f2b d83c e994 4bbe f446 15be
00000350: 62c0 43bd 9538 97bd 02c1 05be cb2e b2bc
00000360: b51f 57be d7fd a5bd aa2e 40bd 7af4 f53e
00000370: aed0 4b3c 2837 4d3d a5fc d03c 8d44 98be
00000380: 757a f2bd 9b67 89bd 269f 693e f11a c2bb
00000390: e935 bd3d f663 993e 0fa3 31bd e457 9bbd
000003a0: 829f 933e 2bda e6bd 9c04 e73d e1ff 2ebe
000003b0: f174 a0bd 02cd 57bd 62e4 8dbc 1a50 f5bc
000003c0: ba79 37bd 5e82 c7bc 00cb 733b b7f4 f4bc
000003d0: f156 b53d 644b cdbd 14fa 173e 9d1c cb3e
000003e0: f78a 8b3d 1c20 953d d875 a7bc 7621 fb3c
000003f0: 1c85 32bc 0ac4 ee3d c157 c43e 9b4b 41bd
0.046394397 -0.066563465 -0.14887884 -0.019430624 0.00054429943 -0.35696137 -0.10481587 0.01223541
-0.12737417 0.086988084 0.0043310346 -0.13325763 -0.022890862 0.13904381 -0.04972255 0.1973154
-0.23809509 0.26368243 0.17693873 0.1636991 0.16913432 0.12442469 0.18204801 -0.08205976
0.06682861 0.08221747 -0.13083948 0.08788992 -0.11598975 -0.14566615 0.17499404 -0.015680818
-0.38430363 0.044591658 -0.176677 0.19058847 0.34600243 0.08293496 -0.17010634 0.05369711
0.074863 0.19444694 -0.29226384 -0.12200545 0.07689451 -0.06961239 0.008239885 -0.04103565
-0.043296944 -0.019168548 -0.2461491 -0.2719841 -0.055711843 -0.039166924 0.055943914 0.036144912
-0.026624901 0.014161983 -0.11204181 -0.2248756 0.018694583 -0.19971354 -0.031368203 -0.06867497
-0.026586479 -0.20256694 -0.25657904 0.059357967 0.1515661 -0.12500098 -0.19662273 0.03311204
-0.08882041 -0.17862467 0.050427847 -0.29047692 -0.18135948 0.015287686 0.05400753 0.025043443
0.013650304 0.032863844 -0.09897885 0.34177345 -6.6324596e-05 0.002060609 -0.11743957 -0.10203682
0.19297142 -0.0011589603 0.051834296 -0.0797785 0.12824522 -0.043532863 -0.036037225 0.12672316
0.170099 0.3017283 0.11776996 -0.0395052 0.27708697 -0.17948884 -0.08993112 0.20484199
0.0232021 0.24008355 -0.23610912 -0.08350306 0.2593382 -0.05134146 0.042896762 0.04970928
-0.0059738327 -0.19372289 0.04552736 -0.31402782 -0.17955104 0.23584172 -0.20700258 -0.10180771
0.14847331 -0.41454417 0.08706498 -0.041460183 0.07880102 0.22179265 -0.040690944 0.033409055
-0.09812154 0.22256272 -0.26509118 -0.009543592 -0.04257002 0.18639565 0.1741218 0.21963288
-0.05104227 -0.009820233 -0.13838941 -0.0024165367 -0.060729217 0.05827344 0.06963444 0.048521105
0.21008271 -0.056287132 0.066174015 -0.04072028 -0.13113925 -0.252884 -0.35526696 -0.015100763
0.1304821 0.33859527 -0.023826333 0.2277591 0.08438757 0.0392462 -0.2619573 -0.011572477
-0.045818385 0.1350416 -0.1500267 -0.31720766 -0.31997228 -0.08126015 -0.20800781 -0.08537291
-0.33207408 0.04744431 0.22133921 -0.100509 -0.26194453 0.28382036 0.13180663 0.17489433
0.0122722145 0.11869216 -0.07522837 -0.014492067 0.04403464 0.096682444 -0.06693593 0.09768512
-0.057006888 -0.057340022 0.14604455 0.07165045 0.0882376 0.23003802 -0.17663904 0.06575325
-0.042014442 0.3190359 -0.07973456 0.018926822 -0.23733559 0.19230631 -0.081804916 -0.29934758
-0.07473632 -0.118074656 -0.026701106 0.30018613 -0.14477505 -0.16722153 -0.03295688 0.12668304
-0.15821946 0.026387868 -0.19881023 -0.14577848 -0.047790892 -0.07383839 -0.13061908 -0.021750828
-0.21008189 -0.08105057 -0.046919502 0.48038083 0.01243989 0.05010143 0.025511095 -0.297398
-0.11839763 -0.06709214 0.22814617 -0.005923622 0.09238798 0.29959077 -0.043368395 -0.07585123
0.28832632 -0.11272081 0.11280176 -0.17089798 -0.07834805 -0.052685745 -0.017320815 -0.029945422
-0.044793822 -0.024354156 0.0037199855 -0.029901845 0.088544734 -0.10024145 0.14841491 0.39670268
0.06813615 0.07281515 -0.020441934 0.030655604 -0.010895994 0.11658485 0.383482 -0.047191244

bias f4 [10]
00000000: 7e36 403d 1409 23bc b717 a03c b20c 0d3c
00000010: 3f05 e93c 0f98 bcbd 79b1 bd3d 6791 f6bd
00000020: 37a3 563d c035 a23d
0.046926968 -0.009950895 0.019542558 0.008608984 0.028444884 -0.092086904 0.09262366 -0.12039452
0.052401748 0.07920408
