mnist_model.pt (torch, 441776 bytes, 6 tensors)

weight f4 [128, 784]
-0.00017401658 0.026413692 0.030094301 0.009497291 0.007204115 -0.021304779 0.026054574 0.027191
0.024339104 -0.0033299283 -0.0054088267 0.00014904418 0.037941907 -0.0014544353 0.010938674 -0.009350156
0.03330096 -0.02393316 0.026387883 0.01071233 -0.027924119 0.016473047 0.036034502 -0.03164391
0.011814362 -0.00057332625 -0.028983368 0.009121714 -0.0085268365 -0.016688392 0.00067639566 0.00016274299
0.014742643 0.037635114 -0.016096262 -0.030219223 -0.0073088934 0.033837758 -0.017798739 0.0004200043
0.028390229 0.035328213 0.024046114 0.022881795 0.037582036 0.010720097 -0.028684204 -0.026942134
0.023635747 0.024016738 -0.032058164 0.017024688 -0.030749328 -0.0027758053 0.033587977 0.023379153
0.016805572 0.014632578 -0.013867095 -0.0014702143 0.028276473 -0.0132174445 0.03814028 0.037427276
0.020790534 -0.0027821013 -0.0034191 0.01897586 0.02051752 -0.0007113032 -0.005618182 0.008459799
-0.014415826 -0.035317533 0.015260725 -0.031999957 0.027491275 -0.03482003 -0.016775496 0.008421569
0.0023338012 -0.022878587 0.004247789 0.033497263 0.020138526 -0.021766247 -0.03131251 0.033399984
0.015058937 0.00044548858 0.03306362 0.0035297351 0.025789449 0.004210133 0.009574394 0.015346312
-0.0057044495 0.013622995 -0.027773075 -0.027078794 -0.04379272 -0.046658114 -0.059014905 -0.06489538
-0.043288603 -0.006537145 0.0074484227 -0.0011856329 0.01643246 0.012134103 -0.0057743336 -0.019186242
0.016875096 -0.01587576 0.023191154 0.037416156 0.025861626 0.0069544255 -0.0042233015 0.01904434
-0.0056131184 0.027831776 0.007114107 0.015857952 0.012433829 0.03357346 -0.020794177 -0.004280237
-0.015296514 -0.046564005 0.013022281 -0.017997285 0.022846086 -0.0526856 -0.034272272 -0.038393497
-0.02241842 0.036203887 -0.017248396 -0.026850952 0.0030783603 0.010232128 0.0047876327 -0.032502208
-0.015087761 0.03359558 0.030534621 0.033975508 -0.012859964 0.0077778874 0.02007166 0.039075717
0.005670816 0.048491653 0.060160585 0.03068503 0.00545274 0.015301971 -0.008332234 0.015055885
-0.05413735 -0.04132226 -0.036882434 0.020609275 0.003792847 -0.011933353 -0.0032774243 0.03228828
-0.012198537 -0.019935954 -0.011733695 0.0034024813 -0.015388889 0.02237641 -0.014025156 0.02564751
0.019735655 -0.020337695 0.024604544 0.024441622 0.010988949 0.073317 0.023802724 0.06319094
0.056221467 -0.0443748 -0.02474697 -0.013566027 -0.017688567 0.028072326 -0.035073727 -0.027189266
-0.008878982 -0.0054078465 -0.012682831 -0.011442192 0.03059876 0.028776847 0.032863453 0.0058881594
0.021820527 -0.0074896626 0.0053779487 0.00026677496 0.010304969 0.01794067 0.036868706 0.04490297
0.053006556 0.06008239 0.03251262 0.028204326 0.039283145 0.013114223 0.025380414 -0.0336594
0.00023787165 0.037133414 -0.0007007027 0.0104785655 -0.019577675 -0.042254474 0.020156393 0.016407838
0.034292508 0.031902496 0.0076249195 0.008077235 -0.012361624 -0.0015072209 0.0070085954 0.019980147
0.030171156 0.015245641 0.057205293 0.0004955401 0.08794477 0.12727122 0.07128319 0.022042654
0.0144027565 0.018408112 0.019698821 0.0020957596 -0.00010526087 -0.025393195 0.034818463 0.016740365
-0.034530677 -0.04418894 0.012791044 -0.0026458658 0.012528626 0.022530528 -0.023010192 -0.013226295
00000000: 3878 36b9 8761 d83c 5388 f63c 879a 1b3c
00000010: 7f10 ec3b 5c87 aebc 6770 d53c a9bf de3c
00000020: cd62 c73c ed3a 5abb 873c b1bb be48 1c39
00000030: f968 1b3d c0a2 beba 2038 333c 6631 19bc
00000040: 9666 083d 790f c4bc 672b d83c c582 2f3c
00000050: 1fc1 e4bc 7cf2 863c ea98 133d 0b9d 01bd
00000060: 0791 413c 464b 16ba 876e edbc 3e73 153c
00000070: 25b4 0bbc 18b6 88bc 2550 313a fda5 2a39
00000080: 208b 713c 4727 1a3d 4fdc 83bc 4e8e f7bc
00000090: 717f efbb 7699 0a3d a9ce 91bc 0634 dc39
000000a0: a092 e83c 51b4 103d 5bfc c43c 9a72 bb3c
000000b0: 9fef 193d 59a3 2f3c 23fb eabc c0b5 dcbc
000000c0: c19f c13c c0be c43c 6c4f 03bd 5c77 8b3c
000000d0: 04e6 fbbc 49ea 35bb 8c93 093d a385 bf3c
000000e0: d7ab 893c 7bbd 6f3c d032 63bc 35b4 c0ba
000000f0: 10a4 e73c fb8d 58bc fb38 1c3d 584d 193d
00000100: e950 aa3c ea53 36bb fb12 60bb 4373 9b3c
00000110: 5c14 a83c c076 3aba ba18 b8bb f89a 0a3c
00000120: 5b30 6cbc 1ea9 10bd 1f08 7a3c 6312 03bd
00000130: 6235 e13c 739f 0ebd c46c 89bc 9ffa 093c
00000140: b0f2 183b e06b bbbc 0931 8b3b 6d34 093d
00000150: 8df9 a43c 214f b2bc 8c41 00bd 6cce 083d
00000160: c2b9 763c 7790 e939 b86d 073d 2153 673b
00000170: 6544 d33c 28f5 893b ebdd 1c3c 196f 7b3c
00000180: 64ec babb fb32 5f3c 5c84 e3bc 59d4 ddbc
00000190: ff5f 33bd 941c 3fbd 9db9 71bd dee7 84bd
000001a0: 644f 31bd 8c35 d6bb e611 f43b 3d67 9bba
000001b0: 5e9d 863c 1ece 463c 9f36 bdbb 772c 9dbc
000001c0: a43d 8a3c e20d 82bc 60fb bd3c af41 193d
000001d0: c3db d33c f3e1 e33b 9f63 8abb e002 9c3c
000001e0: 40ee b7bb 77ff e33c 741d e93b 89e8 813c
000001f0: 42b7 4b3c 5384 093d 8d58 aabc 3b41 8cbb
00000200: 3b9e 7abc e6b9 3ebd 685b 553c 0b6f 93bc
00000210: b727 bb3c dbcc 57bd 1561 0cbd 8042 1dbd
00000220: d6a6 b7bc 874a 143d 824c 8dbc 87f6 dbbc
00000230: 51be 493b a8a4 273c 93e1 9c3b 0921 05bd
00000240: a832 77bc 859b 093d be23 fa3c e729 0b3d
00000250: 99b2 52bc a6dd fe3b 526d a43c dc0d 203d
00000260: 41d2 b93b 2f9f 463d f26a 763d 2c5f fb3c
00000270: e6ac b23b 1eb5 7a3c ec83 08bc f5ac 763c
00000280: 20bf 5dbd 8841 29bd 0912 17bd c8d4 a83c
00000290: 6a91 783b 1c84 43bc 0eca 56bb b740 043d
000002a0: 5fdc 47bc ba50 a3bc af3e 40bc 2afc 5e3b
000002b0: ae21 7cbc bc4e b73c c5c9 65bc ba1a d23c
000002c0: abac a13c 3d9b a6bc 788f c93c cc39 c83c
000002d0: fe0a 343c 3927 963d eefd c23c 406a 813d
000002e0: 7b48 663d 5ac2 35bd 28ba cabc 0b44 5ebc
000002f0: 9de7 90bc eff7 e53c 78a9 0fbd 06bc debc
00000300: 2679 11bc 4e34 b1bb a6cb 4fbc 0878 3bbc
00000310: 40aa fa3c 6cbd eb3c d49b 063d 76f1 c03b
00000320: f6c0 b23c d86b f5bb 8139 b03b eedd 8b39
00000330: 2cd6 283c 50f8 923c a403 173d 2dec 373d
00000340: 671d 593d f418 763d f42b 053d c20c e73c
00000350: 5de7 203d 0add 563c 96ea cf3c 70de 09bd
00000360: 2f6d 7939 3519 183d 5daf 37ba 4aae 2b3c
00000370: 5c61 a0bc 0713 2dbd 051f a53c bb69 863c
00000380: 4d76 0c3d 31ac 023d 76da f93b 6156 043c
00000390: 6988 4abc f18d c5ba 5ca8 e53b 68ad a33c
000003a0: 8029 f73c dac8 793c 1950 6a3d 22e7 013a
000003b0: 631c b43d 6353 023e ecfc 913d cc92 b43c
000003c0: 8af9 6b3c 9ccc 963c 6c5f a13c 0359 093b
000003d0: 80bf dcb8 6405 d0bc ce9d 0e3d 1723 893c
000003e0: 0a70 0dbd 76ff 34bd 8791 513c 4366 2dbb
000003f0: de44 4d3c f191 b83c df7f bcbc 1ab3 58bc

bias f4 [128]
0.020504678 0.034449454 -0.0018285142 0.007653864 -0.042097006 0.0047846097 -0.033716053 -0.026961274
0.006916784 -0.021441251 0.02931088 -0.008186104 0.016128382 0.016003663 -0.035193596 0.023278648
0.023228215 -0.0037223254 0.0016725684 0.008338999 -0.0019021829 -0.028439084 0.0039133555 -0.019785607
0.0340041 -0.026468731 0.006371982 -0.0037905124 0.023898778 -0.003917407 0.0038411776 -0.0028672558
-0.02926821 0.013660231 0.026209434 -0.02911216 0.013013821 0.02896188 0.025643116 0.041164413
-0.035185758 0.009688588 0.013948353 -0.00564582 0.012034482 -0.010741306 -0.027381463 -0.035629053
-0.0034572145 -0.0030627328 -0.03279108 0.006501128 0.0075275037 -0.003919597 0.020280257 0.036869444
-0.013601778 0.029565597 -0.0037949344 -0.010568515 -0.0002823481 0.03268382 -0.031146143 -0.010083519
-0.021902781 -0.028763914 -0.014741875 0.034322444 0.015675949 0.0033212707 -0.03498595 -0.021985767
-0.01724502 -0.012834102 0.03059462 -0.008045847 -0.026001154 0.026785467 0.011886964 0.018361107
-0.0185995 0.03200746 0.013160287 0.025126986 0.008282809 -0.015276814 0.011998913 0.008493956
0.008496621 -0.03315006 -0.029122576 -0.0011717246 0.011557729 8.1816055e-05 -0.031639554 0.008245019
0.008048789 -0.010591651 0.029078512 0.020366086 -0.00996695 0.02768494 -0.028813751 0.0051296256
-0.01540001 0.024374617 0.01640776 -0.0052076993 0.039284863 -0.008770689 0.017832192 -0.009210048
-0.026324471 0.004362019 0.0054914504 -0.00434796 0.016139248 0.018370098 0.0027320615 -0.02671904
-0.0039281175 0.0014742923 0.025592418 -0.007820166 -0.024358638 -0.0068267393 0.0072904327 -0.013351916
00000000: 6df9 a73c df1a 0d3d c1aa efba 44cd fa3b
00000010: e96d 2cbd 37c8 9c3b d819 0abd e4dd dcbc
00000020: 31a6 e23b 90a5 afbc 5f1d f03c 021f 06bc
00000030: ab1f 843c 1d1a 833c 2927 10bd ddb2 be3c
00000040: 1949 be3c 42f2 73bb 153a db3a 4ca0 083c
00000050: ab52 f9ba 15f9 e8bc 9b3b 803b 6d15 a2bc
00000060: e247 0b3d f4d4 d8bc 0fcc d03b 3f6a 78bb
00000070: 5fc7 c33c 975d 80bb 44bc 7b3b 92e8 3bbb
00000080: e3c3 efbc 29cf 5f3c 2bb5 d63c a07c eebc
00000090: ec37 553c 7741 ed3c 8311 d23c 049c 283d
000000a0: f11e 10bd e2bc 1e3c a287 643c 9200 b9bb
000000b0: 472c 453c 4dfc 2fbc 174f e0bc c5ef 11bd
000000c0: 6f92 62bb 21b8 48bb f14f 06bd 6a07 d53b
000000d0: 47a9 f63b f66f 80bb c822 a63c 6a04 173d
000000e0: fed9 5ebc 8d33 f23c 6fb4 78bb 9127 2dbc
000000f0: 1f08 94b9 78df 053d 3226 ffbc 5835 25bc
00000100: 766d b3bc 4da2 ebbc e887 71bc b195 0c3d
00000110: d96a 803c ada9 593b 6d4d 0fbd 7f1b b4bc
00000120: 6e45 8dbc 2046 52bc 92a1 fa3c bad2 03bc
00000130: 5f00 d5bc 326d db3c 8ac1 423c 086a 963c
00000140: fb5d 98bc 411a 033d 3f9e 573c 1cd7 cd3c
00000150: 9eb4 073c 9a4b 7abc 1797 443c 3c2a 0b3c
00000160: 6935 0b3c 5bc8 07bd 7892 eebc 8e94 99ba
00000170: a15c 3d3c a994 ab38 7a98 01bd 1e16 073c
00000180: 11df 033c 9b88 2dbc 0f36 ee3c c7d6 a63c
00000190: 6b4c 23bc 87cb e23c d10a ecbc 6b16 a83b
000001a0: 5350 7cbc 47ad c73c 9169 863c 59a5 aabb
000001b0: 2ae9 203d f0b2 0fbc d114 923c bee5 16bc
000001c0: 6ba6 d7bc 44ef 8e3b a0f1 b33b 5579 8ebb
000001d0: 7536 843c e37c 963c 630c 333b e3e1 dabc
000001e0: 70b7 80bb 0a3d c13a 31a7 d13c 2720 00bc
000001f0: c48b c7bc d7b2 dfbb 95e4 ee3b ffc1 5abc

weight f4 [64, 128]
0.2692173 -0.07973972 0.13419163 0.0632535 0.072871424 0.06493351 0.12967435 0.100340016
0.080166884 -0.10514478 0.059131905 -0.15313306 0.06180495 0.008539315 0.0051266383 0.10497619
-0.07539979 -0.09414836 0.025024667 0.014258107 0.04904868 0.15310378 -0.03415603 0.06356337
-0.1716899 0.06893359 -0.026277088 0.054953374 0.05329454 0.05452258 -0.15771753 0.015854156
-0.20093593 0.0344387 0.107578315 -0.0044396645 0.0009541662 -0.028130375 0.011860777 0.15928954
-0.0032285177 -0.059863694 -0.16570441 -0.068721965 0.056763746 -0.12386237 0.0632087 0.059294198
-0.09109339 -0.14414091 -0.0027634946 -0.1189917 0.032684617 0.06416415 0.03406622 0.003480148
0.035866838 0.05044322 0.07907807 0.071449436 -0.14414531 0.102910765 0.005319299 -0.029702634
-0.0008301605 0.103588715 0.1361234 0.01701357 0.0004961423 0.030595742 0.07870611 0.12584236
0.013572864 -0.018612403 -0.08912776 -0.04051346 -0.042213313 -0.020575471 0.0389521 0.062144868
0.045325268 0.25364017 -0.07380634 -0.057219494 0.060909 -0.092868656 -0.046542898 0.002752405
-0.21078956 0.015782528 -0.040450532 0.070597485 -0.05704181 0.007481619 0.026272764 -0.003629023
0.16147634 0.09931174 0.034333356 0.1827999 0.08897417 -0.08277405 -0.018517802 -0.028631967
-0.3075744 0.123221524 -0.061088994 -0.06466845 0.17966156 0.09314024 0.008401725 -0.004113217
-0.06563391 -0.21813032 -0.11468362 0.22268635 0.07849667 -0.1458007 0.08295101 0.09363755
0.07982062 0.16883817 -0.014491407 0.08452652 -0.058013566 -0.17894045 -0.06388536 0.07120133
-0.008217186 0.10590377 -0.029975537 0.073210165 -0.038923748 0.10277622 0.014209268 0.075856656
0.057457995 0.014065037 -0.0013416116 0.061487485 -0.0046567167 -0.039411336 0.06873337 -0.0009707354
0.0032561515 0.04602283 -0.03385359 -0.053857397 -0.04211705 -0.0014382581 0.005315699 -0.018907268
-0.0037620238 0.025140304 0.010981359 0.014029868 -0.07199894 -0.04885557 0.007440834 0.020433227
-0.04651973 -0.050847467 0.10544767 -0.052446555 0.042795707 0.045367327 0.07821675 -0.05522182
0.07649046 0.089813225 -0.024278393 0.08063814 0.05250632 0.011725365 -0.0055196346 0.06129591
-0.026696729 0.03842798 0.05399268 -0.03748587 0.03659444 0.007131954 0.09397842 0.06497275
-0.008226159 -0.083113916 -0.029272156 -0.0019349221 0.05499577 -0.03609717 -0.0038518114 0.004530004
-0.046264097 -0.06569347 0.071283415 -0.036266457 -0.08319519 0.0024000595 -0.02033266 0.023190347
-0.087872304 0.080149844 0.0026669113 -0.05279614 0.110850215 -0.019410817 -0.029933851 0.08370316
0.011041113 0.043884456 -0.02069268 0.019377701 -0.063768186 0.05864507 0.11661534 -0.020739682
0.019137727 0.029494774 0.064186 0.080399886 -0.07899799 -0.0453906 0.06875017 0.060268044
0.024062403 0.0054392577 0.063704334 0.0053796764 -0.0061983773 0.0836178 0.050325904 0.06953964
-0.08096153 0.08427297 0.056505043 -0.011892903 0.08730723 -0.010419632 0.074175715 0.031922717
-0.020803876 0.034354135 -0.10189329 0.0462159 -0.082885034 -0.003971345 0.020065986 0.01927409
0.01737076 -0.027452236 -0.01948054 0.078822955 -0.08538143 -0.04900173 0.010299286 0.01939042
00000000: dad6 893e 944e a3bd 8869 093e 0d8b 813d
00000010: 9d3d 953d dcfb 843d 5ac9 043e 117f cd3d
00000020: 892e a43d 2556 d7bd 4c34 723d eace 1cbe
00000030: 3027 7d3d 7ce8 0b3c 5cfd a73b c2fd d63d
00000040: 356b 9abd dbd0 c0bd 8800 cd3c d69a 693c
00000050: 45e7 483d 3dc7 1c3e 31e7 0bbd 832d 823d
00000060: 7acf 2fbe 0e2d 8d3d 0c43 d7bc ca16 613d
00000070: 604b 5a3d 1253 5f3d b480 21be 93e0 813c
00000080: 26c2 4dbe 980f 0d3d 0552 dc3d 9b7a 91bb
00000090: 0221 7a3a ac71 e6bc b453 423c cc1c 233e
000000a0: 8a95 53bb a233 75bd 6bae 29be 1abe 8cbd
000000b0: 1a81 683d 8eab fdbd 9073 813d 79de 723d
000000c0: 2c8f babd ad99 13be bf1b 35bb ecb1 f3bd
000000d0: 4ee0 053d 7e68 833d 0589 0b3d 3213 643b
000000e0: 1be9 123d 8d9d 4e3d aff3 a13d 1554 923d
000000f0: d49a 13be e1c2 d23d 844d ae3b f052 f3bc
00000100: 219f 59ba 5226 d43d ef63 0b3e 0b60 8b3c
00000110: 8c0f 023a eca3 fa3c ab30 a13d d2dc 003e
00000120: b860 5e3c 0a79 98bc 9d88 b6bd 71f1 25bd
00000130: dee7 2cbd e48d a8bc 3d8c 1f3d 9e8b 7e3d
00000140: fda6 393d 20dd 813e c727 97bd fd5e 6abd
00000150: b77b 793d ec31 bebd c4a3 3ebd b161 343b
00000160: 38d9 57be 5c4a 813c 75af 25bd 6a95 903d
00000170: aca4 69bd 5e28 f53b fb39 d73c e7d4 6dbb
00000180: 0e5a 253e f463 cb3d 22a1 0c3d e62f 3b3e
00000190: 1738 b63d 7185 a9bd a5b2 97bc 968d eabc
000001a0: 647a 9dbe 915b fc3d 7438 7abd e470 84bd
000001b0: 33f9 373e 4fc0 be3d 64a7 093c 2ac8 86bb
000001c0: 126b 86bd 8e5d 5fbe 3fdf eabd e407 643e
000001d0: ddc2 a03d c74c 15be 38e2 a93d 0bc5 bf3d
000001e0: fe78 a33d eae3 2c3e 5e6d 6dbc 3d1c ad3d
000001f0: a29f 6dbd 2a3c 37be 54d6 82bd 01d2 913d
00000200: 60a1 06bc 13e4 d83d 428f f5bc 36ef 953d
00000210: 826e 1fbd 577c d23d fdcd 683c bc5a 9b3d
00000220: 1359 6b3d 0a71 663c 04d9 afba 4dda 7b3d
00000230: 5f97 98bb c86d 21bd 15c4 8c3d f378 7eba
00000240: 2865 553b 6f82 3c3d 10aa 0abd 9399 5cbd
00000250: ee82 2cbd ef83 bcba 512f ae3b 6ae3 9abc
00000260: 498c 76bb 0af3 cd3c 28eb 333c 88dd 653c
00000270: 2e74 93bd c71c 48bd 3dd2 f33b 9563 a73c
00000280: 798b 3ebd 6f45 50bd f3f4 d73d 33d2 56bd
00000290: 8d4a 2f3d 17d3 393d 1a30 a03d 4630 62bd
000002a0: 08a7 9c3d ffef b73d 7be3 c6bc 9c25 a53d
000002b0: de10 573d bf1b 403c 0dde b4bb 6c11 7b3d
000002c0: 19b3 dabc a866 1d3d 6e27 5d3d c98a 19bd
000002d0: 0de4 153d 2bb3 e93b c277 c03d 6f10 853d
000002e0: 03c7 06bc a137 aabd 29cc efbc 369d fdba
000002f0: 3f43 613d a0da 13bd ac6e 7cbb 6e70 943b
00000300: 6c7f 3dbd 4c8a 86bd 0afd 913d 238c 14bd
00000310: 3d62 aabd 514a 1d3b ae90 a6bc aff9 bd3c
00000320: 65f6 b3bd 9a25 a43d 59c7 2e3b c440 58bd
00000330: 7005 e33d 6f03 9fbc d637 f5bc 906c ab3d
00000340: c9e5 343c 30c0 333d b283 a9bc fcbd 9e3c
00000350: e598 82bd d035 703d 06d4 ee3d 44e6 a9bc
00000360: b9c6 9c3c 069f f13c f373 833d b2a8 a43d
00000370: b3c9 a1bd 7eeb 39bd e4cc 8c3d a0db 763d
00000380: 841e c53c cd3b b23b 6b77 823d ff47 b03b
00000390: c21b cbbb cf3f ab3d 8922 4e3d cc6a 8e3d
000003a0: 29cf a5bd 4f97 ac3d d571 673d 73da 42bc
000003b0: 22ce b23d 1bb7 2abc 70e9 973d 65c1 023d
000003c0: e46c aabc ecb6 0c3d 6ead d0bd e24c 3d3d
000003d0: a1bf a9bd 0e22 82bb 6c61 a43c b2e4 9d3c
000003e0: 204d 8e3c 83e3 e0bc a795 9fbc ee6d a13d
000003f0: 76dc aebd 0ab6 48bd 56be 283c a8d8 9e3c

bias f4 [64]
0.018587269 0.09075805 -0.02647017 -0.04456381 0.004143453 0.020018455 0.0130135 -0.02725935
-0.019230489 0.0077693793 -0.06942755 -0.07201965 -0.015081134 -0.061784904 -0.022441437 -0.006434155
0.030661175 -0.046037544 -0.03967817 -0.0061645256 0.032240417 0.026308453 -0.07660239 0.03973872
0.011332888 0.040760323 -9.722681e-06 0.016293604 0.06608306 0.042100474 0.045573853 -0.06072358
0.006262494 0.025611725 0.010687624 -0.01307494 0.07619986 -0.009970823 -0.010245935 -0.037753593
0.0179117 -0.007763293 0.06639594 -0.060215432 -0.054580487 0.019441871 0.02633866 0.089082934
0.0498125 0.07022285 -0.07689481 0.038798053 -0.023639197 0.072364084 0.11240064 -0.019351665
0.064892024 -0.080645956 0.037315037 0.04071691 -0.05786271 0.062535994 0.082045674 0.051026456
00000000: 5444 983c 5bdf b93d f8d7 d8bc 8b88 36bd
00000010: cec5 873b befd a33c 9336 553c 004f dfbc
00000020: 4289 9dbc 4796 fe3b 0830 8ebd 0a7f 93bd
00000030: dc16 77bc 2b12 7dbd 1bd7 b7bc 9bd5 d2bb
00000040: 252d fb3c dd91 3cbd 9485 22bd caff c9bb
00000050: 870e 043d d384 d73c b7e1 9cbd 11c5 223d
00000060: 94ad 393c 4cf4 263d 991e 23b7 2a7a 853c
00000070: 8e56 873d 8c71 2c3d a6ab 3a3d 4ab9 78bd
00000080: 9b35 cd3b aecf d13c 251b 2f3c 4638 56bc
00000090: ac0e 9c3d aa5c 23bc 91de 27bc 83a3 1abd
000000a0: 8fbb 923c 3963 febb 98fa 873d 75a4 76bd
000000b0: ca8f 5fbd 8f44 9f3c 2cc4 d73c 1d71 b63d
000000c0: 3108 4c3d ffd0 8f3d 077b 9dbd b5ea 1e3d
000000d0: fda6 c1bc 9f33 943d 4f32 e63d 6287 9ebc
000000e0: 1ce6 843d b529 a5bd a7d7 183d c6c6 263d
000000f0: 7301 6dbd df12 803d 9007 a83d 1e01 513d

weight f4 [10, 64]
-0.012571633 -0.010118508 0.1646648 -0.20047142 0.07377725 -0.17015973 -0.006412297 -0.36719865
-0.2861681 -0.042010896 -0.19736685 -0.25006327 0.06704703 0.04268555 0.082130715 -0.040430058
0.14706504 -0.21253212 -0.01892413 -0.17997408 0.49443272 -0.33512378 -0.035493497 0.15081753
0.26586264 -0.11665863 -0.51231253 -0.4503384 0.1500058 0.2725565 0.053807516 -0.111622505
0.3550259 0.16001357 0.40493646 -0.16595756 -0.007881571 0.121374555 0.0041403524 0.24690588
-0.052739803 0.30935004 -0.27808034 -0.12608168 -0.3273791 -0.0042547625 0.42332706 0.078052476
0.30167672 0.113373086 0.03311613 -0.1412561 -0.020291744 -0.27945864 0.050552133 0.007034959
0.105277546 0.025473291 -0.038066186 -0.30640963 0.22538862 -0.0012234113 -0.06774336 -0.18679777
-0.17722178 -0.08858819 0.13875942 0.37077165 0.044188328 0.09015869 -0.08246109 0.41234034
0.16285019 -0.30501524 0.5107841 -0.27536637 -0.012754552 0.02142698 0.02785017 0.24907549
-0.040907312 0.19682273 -0.117569566 -0.22357516 -0.34011564 0.1070845 -0.004916986 -0.29942062
0.072277986 -0.19135113 -0.090082705 -0.18363887 -0.29886854 0.11152734 0.11496696 0.40836993
0.054730456 -0.017400267 -0.24069856 0.3266967 0.0003096921 -0.046236154 0.14004734 0.073663086
-0.018834721 0.19388749 0.21028754 0.11604397 0.37880647 -0.18444334 0.12689942 -0.21202205
-0.3296183 -0.02718006 -0.0103756655 0.19566695 0.32968068 0.08346503 -0.30791536 -0.07584489
-0.04982123 -0.14123441 -0.29109564 -0.17634897 -0.38944414 0.3512034 -0.12822811 0.18859066
0.464087 0.1551099 0.18185546 0.013004122 0.10409479 0.5976959 0.010395528 -0.27432123
0.0036541987 0.0768237 -0.30528352 0.19873747 -0.13264205 -0.060323678 0.31031668 0.37538692
-0.25483638 0.05038293 0.077260174 0.2911095 -0.16547959 0.044907156 0.0015169206 0.3660684
0.04973447 -0.18439968 -0.14476846 -0.3790553 -0.5799884 0.050425045 0.20407735 0.38531354
-0.106429406 -0.027633367 0.023185998 0.10946911 0.0035867195 -0.31559134 -0.2963915 0.21110706
-0.1522096 0.0032168417 -0.547046 0.042412132 0.5359969 0.17336635 0.1423987 0.12703022
0.31305546 0.11013419 0.05780284 0.12039078 -0.2734743 0.07929328 -0.3389974 0.0916891
0.09132416 0.39986664 0.17523442 -0.12602289 -0.33602035 -0.2255085 -0.049477845 -0.20162338
-0.2538192 0.12923805 -0.16033906 -0.30255064 -0.0779484 0.35067642 -0.07064198 -0.5098442
0.0031509935 -0.01361003 0.26529264 -0.16059747 -0.23232861 -0.003319474 -0.02186606 -0.027648691
0.16875826 -0.33230442 0.14547637 0.5700155 -0.54427874 -0.031830944 0.11824316 0.22957322
-0.09090572 -0.21534437 0.47201765 0.32774022 0.14712137 -0.2608763 -0.40800935 0.123665385
-0.018086223 -0.18860239 0.39320466 0.16309045 0.015834853 0.24370141 0.014892274 -0.0970725
0.06588611 0.35189816 0.28721052 -0.03757328 -0.34696332 -0.2463564 -0.18364474 0.13710868
-0.046340432 -0.021853535 0.028855212 0.16437039 0.36132565 0.16742745 -0.35307154 -0.27066442
-0.2117731 0.18212944 0.3713819 -0.18333113 -0.017123144 -0.14023753 -0.14713079 0.117240414
00000000: 40f9 4dbc 19c8 25bc e49d 283e 6148 4dbe
00000010: 8718 973d 5a3e 2ebe 3f1e d2bb 7601 bcbe
00000020: a084 92be 9e13 2cbd 891a 4abe 4b08 80be
00000030: f44f 893d 0bd7 2e3d 2634 a83d fd99 25bd
00000040: 3898 163e 05a2 59be c706 9bbc 204b 38be
00000050: 4926 fd3e 5895 abbe a161 11bd e96f 1a3e
00000060: 261f 883e b8ea eebd ea26 03bf c192 e6be
00000070: 1f9b 193e 878c 8b3e 4565 5c3d 579a e4bd
00000080: f4c5 b53e 99da 233e d553 cf3e c7f0 29be
00000090: b421 01bc 3993 f83d cbab 873b e5d4 7c3e
000000a0: b105 58bd 2163 9e3e 8c60 8ebe 8e1b 01be
000000b0: 3c9e a7be 896b 8bbb 53be d83e fad9 9f3d
000000c0: 5f75 9a3e 2630 e83d c7a4 073d 70a5 10be
000000d0: df3a a6bc 3415 8fbe c10f 4f3d 8385 e63b
000000e0: c19b d73d 5dad d03c 4aeb 1bbd b9e1 9cbe
000000f0: 46cc 663e df5a a0ba 08bd 8abd ea47 3fbe
00000100: a079 35be ba6d b5bd f316 0e3e c8d5 bd3e
00000110: d2fe 343d 1fa5 b83d 5ce1 a8bd 461e d33e
00000120: 33c2 263e f52a 9cbe bfc2 023f d2fc 8cbe
00000130: 78f8 50bc a287 af3c 0a26 e43c a50d 7f3e
00000140: 6d8e 27bd e68b 493e 50c8 f0bd e3f0 64be
00000150: a323 aebe 1e4f db3d ab1e a1bb a94d 99be
00000160: 7b06 943d 8df1 43be 487d b8bd d40b 3cbe
00000170: 4c05 99be 7268 e43d cc73 eb3d dd15 d13e
00000180: 0b2d 603d 018b 8ebc af79 76be ca44 a73e
00000190: 2c5e a239 1f62 3dbd 9268 0f3e acdc 963d
000001a0: 464b 9abc 718a 463e 9e55 573e 76a8 ed3d
000001b0: ecf2 c13e b7de 3cbe ecf1 013e 4f1c 59be
000001c0: bbc3 a8be b8a8 debc b2fe 29bc eb5c 483e
000001d0: e8cb a83e b7ef aa3d 15a7 9dbe 9154 9bbd
000001e0: 5911 4cbd c19f 10be 7d0a 95be d394 34be
000001f0: 3965 c7be efd0 b33e 3b4e 03be e91d 413e
00000200: d09c ed3e 21d5 1e3e 5138 3a3e 3e0f 553c
00000210: a62f d53d 9902 193f 0152 2a3c d573 8cbe
00000220: 487b 6f3b be55 9d3d 1f4e 9cbe d681 4b3e
00000230: 51d3 07be f615 77bd d4e1 9e3e b732 c03e
00000240: ea79 82be 555e 4e3d 953a 9e3d 4e0c 953e
00000250: 7b73 29be 91f0 373d 69d3 c63a 516d bb3e
00000260: 5fb6 4b3d 45d3 3cbe 2f3e 14be 8913 c2be
00000270: 1f7a 14bf 7e8a 4e3d a7f9 503e d147 c53e
00000280: a9f7 d9bd 5f5f e2bc 90f0 bd3c 5731 e03d
00000290: 2b0f 6b3b 3095 a1be a0c0 97be 732c 583e
000002a0: d5dc 1bbe a6d1 523b 350b 0cbf 58b8 2d3d
000002b0: 1837 093f f386 313e f7d0 113e 3614 023e
000002c0: ce48 a03e 098e e13d acc2 6c3d 718f f63d
000002d0: d304 8cbe 8464 a23d 1191 adbe 7fc7 bb3d
000002e0: 2908 bb3d 52bb cc3e a770 333e 250c 01be
000002f0: dc0a acbe b3eb 66be 48a9 4abd 5c76 4ebe
00000300: 97f4 81be fb56 043e ec2f 24be ebe7 9abe
00000310: 69a3 9fbd dc8b b33e beac 90bd 2685 02bf
00000320: e680 4e3b 9afc 5ebc 70d4 873e aa73 24be
00000330: 8de7 6dbe 888b 59bb 7420 b3bc 827f e2bc
00000340: f7ce 2c3e ce23 aabe c2f7 143e 89ec 113f
00000350: da55 0bbf 2a61 02bd 7829 f23d 3e15 6b3e
00000360: c72c babd 3c83 5cbe 4cac f13e 91cd a73e
00000370: fca6 163e 9491 85be 9ae6 d0be 4744 fd3d
00000380: 8f29 94bc fc20 41be 1f52 c93e 2f01 273e
00000390: 18b8 813c dd8c 793e b9fe 733c f2cd c6bd
000003a0: 4cef 863d ff2b b43e 420d 933e 71e6 19bd
000003b0: 2da5 b1be da44 7cbe 5e0d 3cbe 3866 0c3e
000003c0: 77cf 3dbd 2f06 b3bc c461 ec3c b650 283e
000003d0: adff b83e 1a72 2b3e cbc5 b4be 8794 8abe
000003e0: 0cdb 58be 2480 3a3e c525 be3e 28bb 3bbe
000003f0: d645 8cbc 6d9a 0fbe 74a9 16be be1b f03d

bias f4 [10]
0.0038093694 0.04768037 0.03949116 0.12672365 0.05116768 0.039618213 0.08402757 0.0038615651
0.0021931801 -0.046947032
00000000: 9da6 793b 7e4c 433d 7cc1 213d d8c3 013e
00000010: 3495 513d b546 223d a616 ac3d 5012 7d3b
00000020: 75bb 0f3b 884b 40bd
